…
X_train: torch.Size([354, 1, 120012]), y_train: torch.Size([354])
X_val: torch.Size([76, 1, 120012]), y_val: torch.Size([76])
X_test: torch.Size([77, 1, 120012]), y_test: torch.Size([77])

Dataset Shapes:
Training: torch.Size([354, 1, 120012]), Labels: torch.Size([354])
Validation: torch.Size([76, 1, 120012]), Labels: torch.Size([76])
Test: torch.Size([77, 1, 120012]), Labels: torch.Size([77])

Class Distribution:
Training Set - Normal: 236, Abnormal: 118
Validation Set - Normal: 51, Abnormal: 25
Test Set - Normal: 51, Abnormal: 26

Initializing model...

Model Architecture:
ConvNetQuake(
  (feature_extractor): Sequential(
    (0): Conv1d(1, 64, kernel_size=(15,), stride=(2,), padding=(7,))
    (1): BatchNorm1d(64, eps=1e-05, momentum=0.1, affine=True, track_running_stats=True)
    (2): LeakyReLU(negative_slope=0.2)
    (3): MaxPool1d(kernel_size=2, stride=2, padding=0, dilation=1, ceil_mode=False)
    (4): Sequential(
      (0): Conv1d(64, 128, kernel_size=(9,), stride=(1,), padding=(4,))
      (1): BatchNorm1d(128, eps=1e-05, momentum=0.1, affine=True, track_running_stats=True)
      (2): LeakyReLU(negative_slope=0.2)
      (3): Conv1d(128, 128, kernel_size=(3,), stride=(1,), padding=(1,))
      (4): BatchNorm1d(128, eps=1e-05, momentum=0.1, affine=True, track_running_stats=True)
      (5): LeakyReLU(negative_slope=0.2)
      (6): MaxPool1d(kernel_size=2, stride=2, padding=0, dilation=1, ceil_mode=False)
    )
    (5): Sequential(
      (0): Conv1d(128, 256, kernel_size=(9,), stride=(1,), padding=(4,))
      (1): BatchNorm1d(256, eps=1e-05, momentum=0.1, affine=True, track_running_stats=True)
      (2): LeakyReLU(negative_slope=0.2)
      (3): Conv1d(256, 256, kernel_size=(3,), stride=(1,), padding=(1,))
      (4): BatchNorm1d(256, eps=1e-05, momentum=0.1, affine=True, track_running_stats=True)
      (5): LeakyReLU(negative_slope=0.2)
      (6): MaxPool1d(kernel_size=2, stride=2, padding=0, dilation=1, ceil_mode=False)
    )
    (6): Sequential(
      (0): Conv1d(256, 512, kernel_size=(9,), stride=(1,), padding=(4,))
      (1): BatchNorm1d(512, eps=1e-05, momentum=0.1, affine=True, track_running_stats=True)
      (2): LeakyReLU(negative_slope=0.2)
      (3): Conv1d(512, 512, kernel_size=(3,), stride=(1,), padding=(1,))
      (4): BatchNorm1d(512, eps=1e-05, momentum=0.1, affine=True, track_running_stats=True)
      (5): LeakyReLU(negative_slope=0.2)
      (6): MaxPool1d(kernel_size=2, stride=2, padding=0, dilation=1, ceil_mode=False)
    )
    (7): AdaptiveAvgPool1d(output_size=1)
    (8): Flatten(start_dim=1, end_dim=-1)
  )
  (auxiliary_features): Sequential(
    (0): StatisticalFeatures()
    (1): BatchNorm1d(4, eps=1e-05, momentum=0.1, affine=True, track_running_stats=True)
    (2): Linear(in_features=4, out_features=16, bias=True)
    (3): LeakyReLU(negative_slope=0.2)
  )
  (classifier): Sequential(
    (0): Linear(in_features=528, out_features=256, bias=True)
    (1): BatchNorm1d(256, eps=1e-05, momentum=0.1, affine=True, track_running_stats=True)
    (2): LeakyReLU(negative_slope=0.2)
    (3): Dropout(p=0.5, inplace=False)
    (4): Linear(in_features=256, out_features=128, bias=True)
    (5): BatchNorm1d(128, eps=1e-05, momentum=0.1, affine=True, track_running_stats=True)
    (6): LeakyReLU(negative_slope=0.2)
    (7): Dropout(p=0.3, inplace=False)
    (8): Linear(in_features=128, out_features=64, bias=True)
    (9): BatchNorm1d(64, eps=1e-05, momentum=0.1, affine=True, track_running_stats=True)
    (10): LeakyReLU(negative_slope=0.2)
    (11): Dropout(p=0.2, inplace=False)
    (12): Linear(in_features=64, out_features=1, bias=True)
    (13): Sigmoid()
  )
)

Total parameters: 2,764,633
Trainable parameters: 2,764,633

Starting model training...
Training Parameters:
Epochs: 50
Learning Rate: 0.0001
Batch Size: 16

Epoch 1/50
Train Loss: 3.1020, Val Loss: 2.6405
Train Metrics: Acc=42.9%, P=68.9%, R=26.3%, F1=38.0%
Val Metrics: Acc=34.2%, P=66.7%, R=3.9%, F1=7.4%
Learning rate: 9.76e-05
…
